arknights007/resources/inventory_reco/ark_material.onnx (onnx, 497992 bytes, 8 tensors)

35 f4 [8, 3, 5, 5]
000000 59 22 01 3f 4e d1 07 3f 0e cc 0c bf c9 3e 78 3e
       0.50443035 0.5305375 -0.5499886 0.242427
000010 95 25 61 bf ab 99 b0 3e 51 ec 59 3e 15 4d 12 bc
       -0.8794797 0.3449224 0.21281554 -0.008929511
000020 91 f8 c9 be 12 ad 31 bf c9 df 82 3c 42 27 52 be
       -0.39447454 -0.6940471 0.01597585 -0.20522788
000030 36 2e 40 3e 1a 99 99 3e 20 54 9c 3c 52 a6 14 3f
       0.18767628 0.2999962 0.019083083 0.58066285
000040 36 50 05 bf cd 20 16 3f 0a ef f7 bd 23 98 c7 3e
       -0.5207552 0.586438 -0.1210614 0.3898326
000050 ec 65 ca 3e fd a1 8e 3e 9a 87 a7 3e ff 7d 29 bf
       0.39530885 0.27857962 0.32720643 -0.6620788
000060 21 ab 2f bf a1 da ad be 7e ea 27 3f 3f 7c a1 be
       -0.68620497 -0.33955863 0.6559218 -0.31540105
000070 5b 5b 15 3f 9e f3 b1 bd 94 dc e4 be cd ba b6 3e
       0.5834252 -0.086890444 -0.44699538 0.35689393
000080 75 c1 5e 3f 48 04 0b bf 84 b0 03 bf f9 4c f3 3e
       0.8701394 -0.5430341 -0.51441216 0.47519663
000090 07 81 fb 3e 0e 1f 1b 3f 58 d4 cd be a1 85 d0 be
       0.49121878 0.6059426 -0.40201068 -0.4072695
0000a0 eb a9 2a 3f 44 ef da bd d2 e7 47 bd a8 a7 84 3d
       0.66665524 -0.106901675 -0.048805065 0.064772904
0000b0 50 25 af be e7 18 9f 3e e2 76 f7 3e 73 af 6e be
       -0.34208155 0.31073686 0.48332888 -0.23309116
0000c0 07 4f 1f bf 8c bf ab be d3 5e bd 3e 14 4e 5c 3e
       -0.6222996 -0.33544576 0.36986408 0.2151416
0000d0 a2 a8 9c 3b 81 ed 48 bc 0b 9a c0 bd e6 f6 25 be
       0.004780845 -0.012263657 -0.09404381 -0.16207466
0000e0 0f e9 f0 be 42 04 f7 be 0e 3c 50 3f 78 05 90 be
       -0.4705281 -0.48245436 0.81341636 -0.28129172
0000f0 b1 24 bc 3d 09 8e de 3d 1e 24 1d bd 58 5f 59 3d
       0.09186686 0.10866935 -0.038364522 0.053069443
000100 ef b3 1b be 50 88 e9 be ec 38 6c be 26 91 30 be
       -0.15205358 -0.4561181 -0.23068589 -0.1724287
000110 fb 89 79 bf dd cf 40 3e 01 1b e5 be 3a 14 be 3d
       -0.97476166 0.18829294 -0.44747165 0.09281202
000120 6a 26 4a bf 26 c8 49 3d e1 6f f8 3d e3 b5 c2 3d
       -0.78964865 0.049263142 0.12130714 0.095073484
000130 1c 98 69 3e d7 38 40 bf f9 6c 2a be 5f 9d 39 3e
       0.22811931 -0.7508673 -0.16643132 0.18126439
000140 7a 67 26 3d b2 93 1e be 33 b6 b3 3e c4 68 f8 bd
       0.040626027 -0.15486029 0.35099944 -0.121293575
000150 aa e1 c7 be ef 47 96 3e 4b 6c e7 bb da 9b 36 be
       -0.39039356 0.29351756 -0.00706247 -0.1783289
000160 fb f4 36 3b 50 5a 0a bf 92 65 78 3e 0e 25 09 3f
       0.0027917016 -0.54044056 0.24257496 0.53572166
000170 44 d4 17 3f 8b 59 41 3b ff 45 24 3e 8e 05 ed be
       0.59308267 0.0029502835 0.16042326 -0.462933
000180 fc 7a c6 be 16 a0 c4 3d 1c 77 38 3f 4b 0e cc 3e
       -0.38765705 0.096008465 0.72056746 0.39854655
000190 83 49 b2 be 48 b5 21 be 1b f1 61 3c 4f 77 4a bd
       -0.3482171 -0.1579181 0.013790394 -0.049430188
0001a0 2a 2a 4f be d0 8d 14 3f 32 4a b3 be cf 60 09 3e
       -0.20230928 0.5802889 -0.35017544 0.13415836
0001b0 f3 8b 10 bf c3 68 d5 be eb 27 83 be a5 55 9a bd
       -0.56463546 -0.4168149 -0.25616392 -0.07535867
0001c0 fd 54 b3 3e 66 9f 99 3e 91 30 aa 3e 0c 5d 15 3f
       0.35025778 0.30004424 0.33240178 0.58345103
0001d0 cd 82 81 3e a7 1f cf 3e 55 bc ec be b5 02 db 3d
       0.25295106 0.40453836 -0.46237436 0.10693876
0001e0 9f 08 11 be 81 9d 88 3e ce bd d6 3e 66 e3 72 be
       -0.14163445 0.26682666 0.41941684 -0.23719558
0001f0 66 b1 8b 3e 99 e9 c5 be 91 ba 07 bf 82 df 36 bf
       0.27283782 -0.38654783 -0.5301905 -0.71434796
000200 7e 51 25 3e 3f 09 15 bf 54 25 4d be 3e 52 82 3e
       0.16144368 -0.58217233 -0.20033771 0.2545337
000210 96 65 f3 bd 43 2f 8b bd 13 64 43 be c2 4d ae 3e
       -0.1188461 -0.06796124 -0.19081144 0.340437
000220 65 dc 69 be 0b 36 9a be 05 67 26 be fa b8 4a 3d
       -0.2283798 -0.30119357 -0.16250236 0.049492814
000230 ea 00 b6 3e ff f8 90 bd 35 60 e4 3e 6f 63 78 3e
       0.35547572 -0.07078742 0.4460465 0.24256681
000240 00 0f a1 3e 64 17 3e bd cc 0b 7d 3e ff 74 bf bd
       0.31456757 -0.046409026 0.24711531 -0.09348487
000250 e7 a1 5f 3e 73 aa f8 3e df 43 ba be df d8 13 3e
       0.21839105 0.48567542 -0.36379907 0.14438199
000260 c6 cf 7b 3e 5c 97 e7 be d9 db 81 3d b6 31 96 bd
       0.24590978 -0.45232666 0.06340761 -0.073337
000270 f9 d7 86 3e e4 75 75 3e 7c 85 99 be 46 88 b2 3c
       0.2633665 0.23970753 -0.29984653 0.021793496
000280 2c 42 56 be f7 c0 49 be fa 35 48 3e 7e 09 dd be
       -0.2092368 -0.19702516 0.1955184 -0.43171304
000290 51 b6 01 be 49 c0 1b 3d 3e fa 8d bc 27 6b 6a be
       -0.12667204 0.038025174 -0.017331239 -0.22892438
0002a0 49 4b 88 be 7b df 63 be ef 67 76 3e 38 ea ab be
       -0.26619938 -0.2225322 0.24063085 -0.33577132
0002b0 7f ba f9 be 72 3a 25 3e fb 47 10 be f4 6a 91 bd
       -0.48775098 0.16135576 -0.14089958 -0.07100478
0002c0 23 4a e3 3e f4 13 fc 3e 0f 01 25 3e 60 c5 51 3d
       0.443925 0.49233973 0.16113685 0.051213622
0002d0 1d cc c0 be 02 bf 48 be cc 60 5d be 86 07 29 3e
       -0.37655726 -0.19604114 -0.21618956 0.16506776
0002e0 7a ca 9c 3e 8a dd 8a 3e f0 64 f6 3d 2c 21 30 be
       0.30623227 0.27122146 0.12030971 -0.17200154
0002f0 c5 e5 c4 3d f3 5f ea 3c 8e 6f f2 3d 3d dd 3a be
       0.096141376 0.028610205 0.118376836 -0.18248458
000300 df 07 a9 be d4 35 57 3e f9 66 a7 3e 84 b4 df 3d
       -0.33013818 0.21016628 0.3269575 0.109231025
000310 7b 19 b6 3c d6 02 93 3e 5a b2 37 3e 97 98 c4 3e
       0.022228947 0.287131 0.1793913 0.38397667
000320 03 33 3b 3d b0 1d ee 3e 7e a2 38 bd da a2 08 3f
       0.045702945 0.46507025 -0.04507684 0.5337349
000330 b9 88 e4 3b 7f b9 43 be 2c 09 84 3d 36 c9 22 3d
       0.0069743064 -0.1911373 0.06447062 0.03974267
000340 01 ae fd 3d 9a bb b9 3e 0b 09 9c bd e9 e8 96 3d
       0.12386704 0.3627594 -0.07618912 0.07368643
000350 49 b5 3c 3e 7c 37 d0 3e d5 18 1a 3f 7c f9 88 be
       0.1842853 0.4066733 0.6019414 -0.2675284
000360 db 5d 04 ba 70 d8 54 3d 93 d1 9d 3e 57 29 38 be
       -0.0005049386 0.051964223 0.30823955 -0.1798452
000370 38 bc df be 99 a8 aa be f8 30 61 3d 04 96 cb 3e
       -0.43698287 -0.33331755 0.05497834 0.3976289
000380 dd ce 11 3d 2f 0f a7 3d c7 41 15 3f e2 9e 93 3e
       0.03559767 0.08157193 0.58303493 0.28832155
000390 84 f4 53 bd 88 5d 0b 3f 3e d8 2b bf b2 09 87 3e
       -0.05174686 0.5443959 -0.67126834 0.26374584
0003a0 ef 40 a6 be 95 44 6b be c7 44 00 3f ca 90 4d 3e
       -0.32471415 -0.2297538 0.50104946 0.20074764
0003b0 40 56 e9 be 07 b6 82 3e 3a 1e d9 3e 7f 5a 12 3f
       -0.45573616 0.255295 0.42405874 0.57169336
0003c0 a9 c2 29 3f ef ae 02 bf 92 10 8c be db 40 6b be
       0.6631265 -0.5104818 -0.27356392 -0.22973959
0003d0 64 c3 ff 3e 6c 01 48 be 36 90 24 bf 4d c7 2c bf
       0.4995376 -0.19531792 -0.6428255 -0.6749161
0003e0 30 1b 22 3e 20 d0 8a 3e 12 1b 23 3f 58 11 6d be
       0.15830684 0.27111912 0.6371318 -0.23151147
0003f0 b8 3c f4 3e 9d a3 87 3d c4 43 e4 be 6b f0 e5 be
       0.47702575 0.06623004 -0.4458295 -0.44909987

36 f4 [8]
000000 10 40 6a 3f d0 a3 06 bf 9b 1b 9a bf 2e 83 8b be
       0.91504 -0.5259371 -1.2039675 -0.2724852
000010 ac b7 b2 3f d0 3c d4 3f 69 72 b0 bf 23 58 e3 3f
       1.3962302 1.6581059 -1.3784915 1.7761272

38 f4 [16, 8, 3, 3]
000000 5b c9 90 3e 04 90 60 3f de 2c 28 be 87 f1 07 3f
       0.28278622 0.8771975 -0.16423365 0.53102916
000010 98 22 f9 3f 03 ff 3f 3e ac 46 c7 3e 58 bd 52 be
       1.9463682 0.18749623 0.38921106 -0.20580041
000020 ba bc f8 bf 2b cc 99 3e 8f 4b fd bd 02 2e 22 3e
       -1.9432595 0.3003858 -0.12367927 0.15837863
000030 a5 55 40 3f ae 4c 20 bd 17 da 50 be ff 8f c0 be
       0.75130683 -0.039135627 -0.20395695 -0.3760986
000040 d1 4f 86 be a4 a4 24 bf 86 4d 35 3f ca 63 64 bf
       -0.2623277 -0.6431372 0.70821416 -0.89214766
000050 b8 37 1f 3f fe 20 fd 3e c4 a4 04 3f a1 83 5e 3f
       0.62194395 0.49439234 0.5181391 0.869196
000060 85 0a 8d 3e 3d ee 16 be 73 a0 0d bf 34 2a 7d bf
       0.27547088 -0.14739318 -0.5532295 -0.9889252
000070 11 5e 14 3f b2 b0 18 be b5 b8 ca be e9 9f 14 3f
       0.57956034 -0.14911154 -0.39594045 0.58056504
000080 75 8c 36 be bf 50 b5 3e bf 3c 1d bf 9a 00 07 3d
       -0.17827018 0.35413167 -0.61420816 0.032959558
000090 da 72 f1 be 0d cf 7d be d2 a1 be 3e 35 c6 06 3f
       -0.47157937 -0.24786015 0.37232834 0.5264619
0000a0 5e c4 48 3f 6f 25 a5 3f eb aa 15 be c4 2b 96 bf
       0.7842463 1.2902049 -0.14615981 -1.1732106
0000b0 f2 c9 7e bf ff 85 82 3f 6d f2 3f be 7d 4f 37 bf
       -0.99526894 1.0197142 -0.18744822 -0.71605664
0000c0 75 7e 3b bf 1b 2a e5 3e ca b2 ef 3f b4 d2 1e 3e
       -0.73239833 0.44758686 1.8726437 0.15510064
0000d0 4c 16 df 3f 5c f9 89 bc ee 33 bc 3c 0c 8d 32 3f
       1.742868 -0.016842537 0.02297398 0.6974647
0000e0 2d 72 c2 3e 3d ea 35 bf 4f 51 81 bf 70 50 28 3e
       0.37977734 -0.71060544 -1.0102938 0.16436934
0000f0 a2 9b 1d 3e f6 52 47 3f 65 44 5a bf fa 3d f8 be
       0.153914 0.77860963 -0.8526061 -0.48484784
000100 ef 1c c9 3e fc d6 01 bf b0 7e 64 bf 8c 37 6d bf
       0.39279887 -0.50718665 -0.8925581 -0.9266288
000110 4d 8c bf bf 69 de 63 bd 1f 00 0a 3f 95 e8 e8 3e
       -1.4964691 -0.05563203 0.53906435 0.45489946
000120 10 91 a5 be 72 a3 92 3e f5 58 a8 3f 26 d8 0e 3f
       -0.32337236 0.28640324 1.3152148 0.55798566
000130 3d 3b 8a 3f f1 9d b2 3f 55 4a 8b be 9a c9 a2 bf
       1.0799328 1.395445 -0.27205148 -1.2717774
000140 de b0 c4 be 99 f3 7f 3d f4 7e 90 bf 29 21 ff bd
       -0.3841619 0.062488172 -1.1288743 -0.12457497
000150 b9 1b 32 bf 84 e7 a8 bd 78 61 0c 3e 15 33 3f 3f
       -0.6957355 -0.08247283 0.13709056 0.7468732
000160 ce 24 d7 bf 2c 3e d2 3e 7a bf 39 3f a1 d1 5d be
       -1.6808107 0.41063058 0.72557795 -0.21661998
000170 c0 1d 0b 3e f8 a2 d4 be fb a0 01 bf c9 e6 a5 bf
       0.13585567 -0.41530585 -0.5063626 -1.2961055
000180 ab 4f 4c 3f 93 e2 7f 3f b1 51 18 bc 29 84 d8 be
       0.79809064 0.999551 -0.0092968205 -0.4228833
000190 5a c7 07 3f d2 3f b0 3e 53 ce 99 bd fc 6b 1a bf
       0.5303856 0.3442369 -0.07510056 -0.6032102
0001a0 5a ac 02 40 62 d7 65 be 8d 31 86 3f 12 b0 cd 3f
       2.0417695 -0.22445443 1.0483872 1.6069357
0001b0 c5 8e f9 3f ec 15 6d be c3 50 67 3f 69 71 7a bd
       1.9496695 -0.23152894 0.9035761 -0.061143313
0001c0 3f 80 3b be 95 7e 6a 3f 44 a6 3a 3f da 25 e8 be
       -0.18310641 0.915994 0.7290995 -0.45341378
0001d0 65 d4 7d bf d6 5b c3 3e 8e 2d 2f bf da 36 5f 3d
       -0.99152213 0.38156003 -0.68428886 0.05449567
0001e0 62 fa 18 3e d7 19 60 bf 3a 6a 93 bf 09 fb 11 3e
       0.14939263 -0.8753943 -1.1516793 0.14255919
0001f0 fa c5 b1 bf c5 54 fa bd 04 bc f1 be 6d 86 73 bf
       -1.3888543 -0.122232 -0.47213757 -0.9512699
000200 8b 52 f1 bd 3a 57 9c be 5f d3 59 bf cc c8 ac be
       -0.11783322 -0.305353 -0.8508815 -0.33746946
000210 5e ac 96 3f 96 96 41 bf e2 a8 1b 3f 15 23 e3 be
       1.1771352 -0.756204 0.6080457 -0.44362703
000220 41 a6 8e 3d 81 07 8c bf dc df c2 bf 35 a4 21 bd
       0.06965304 -1.093979 -1.5224566 -0.03946324
000230 58 50 03 be fa 85 68 3e 85 43 45 3f a1 be 99 3f
       -0.12823617 0.22707358 0.7705615 1.20113
000240 7c 6e 19 bf 9b 26 a8 bf a8 f8 a4 be 1d e1 9a bf
       -0.5993421 -1.3136781 -0.3222096 -1.2099949
000250 cd ce 66 bf 78 2e 80 bf 81 38 cd bd 5e cd dd 3f
       -0.901593 -1.0014181 -0.10020543 1.7328298
000260 ed 1d 16 3f d1 e9 3a 3f 3b 9e 8a 3f 05 44 68 be
       0.58639413 0.73013026 1.0829538 -0.22682197
000270 39 d0 69 be 4a 5d 75 bf 74 42 d8 be 60 c2 2b bf
       -0.22833337 -0.9584547 -0.422382 -0.6709347
000280 51 49 af bf a3 6f b0 3e 67 9d eb 3d 69 81 94 bf
       -1.3694249 0.34460172 0.115046315 -1.1601993
000290 00 40 0d bf f8 2b d7 be 1b 69 6e bf 19 1e 9f 3f
       -0.5517578 -0.42025733 -0.9312913 1.243106
0002a0 2b 54 44 be ac e7 46 3e 1c a7 d1 3f ed 2f f6 bc
       -0.19172733 0.19424313 1.6379123 -0.03005215
0002b0 ae e9 1f 3f cf 6d ba 3d af 9f bf 3c 82 6e bd 3f
       0.6246594 0.091029756 0.023391573 1.4799349
0002c0 d6 86 db be 37 5f 1a 3e 42 c0 b2 be 80 0e 5d 3f
       -0.4287631 0.15075384 -0.34912306 0.8635025
0002d0 f8 93 1c bf ba bc 7d 3f 9a 40 01 be 8d 6f 52 3f
       -0.6116328 0.991161 -0.126223 0.82201463
0002e0 73 9c 84 bf e0 7b bb 3b 1c 33 88 3d df dd 71 bf
       -1.0360245 0.005721554 0.06650373 -0.94479173
0002f0 68 59 ff 3e 2b e4 c2 3b 53 fa 41 3f f9 b4 75 be
       0.498729 0.00594761 0.7577259 -0.23994817
000300 1e df 07 3f ac e8 62 3f 25 32 32 3f b1 6f 6c bd
       0.53074825 0.8863628 0.69607764 -0.057723705
000310 a3 3d cb 3e 93 85 21 3f 8e 1d 3d 3f 75 f3 71 bf
       0.39695463 0.63094443 0.7387322 -0.9451211
000320 95 ea 3c 3f af 87 4a 3f 0f 1c 7a 3c 89 37 75 3c
       0.73795444 0.79113287 0.015265479 0.014966854
000330 6a bd 45 bf 64 55 cd 3e e8 ae 90 3e 53 aa 1f bf
       -0.7724215 0.4010421 0.28258443 -0.6236927
000340 ae 4c 44 bf 2f 39 88 3f d0 3e 85 3f 70 89 c9 bf
       -0.76679504 1.0642451 1.0409794 -1.5745068
000350 cc 4c fc 3e b8 cc b0 bd 3f af 1c be 73 d9 8a bf
       0.4927734 -0.08632797 -0.15301226 -1.084761
000360 8d f1 6d 3e 7b 50 a0 3f fd 96 8e 3f 46 e8 a5 3e
       0.23236676 1.2524561 1.1139828 0.32403773
000370 c4 f2 89 3e 81 38 ca be f7 1c d5 3f ea de 2b 3f
       0.26943028 -0.39496234 1.6649464 0.67137015
000380 e1 b9 b6 bd e2 92 6d be b7 1e 11 c0 46 d4 24 3f
       -0.08922172 -0.23200563 -2.2674997 0.64386404
000390 4d 45 2f be 4b a8 d4 be e6 6c 80 be d6 80 84 bf
       -0.1711628 -0.41534647 -0.25083083 -1.0351818
0003a0 31 d4 ca bf 98 01 ff bc 3d 83 b5 3e 1d 9c 39 bf
       -1.5846006 -0.03112869 0.3545169 -0.72503835
0003b0 cd 6a d4 be e3 3c b2 be be b7 53 bf 05 ba 0f bf
       -0.41487733 -0.34812078 -0.82702243 -0.5614322
0003c0 26 1d 05 3f 16 f5 9f be 22 89 5e 3e 02 77 4a 3f
       0.519976 -0.31241673 0.21732 0.7908784
0003d0 a7 80 d4 3e f3 a8 04 3f 3d f5 1e 3f 11 8e aa bd
       0.41504404 0.51820296 0.62092954 -0.08327878
0003e0 2e 52 f8 3e 52 ec 29 3f d0 ab de 3e 98 a1 1b bf
       0.48500198 0.6637622 0.43490458 -0.6079345
0003f0 09 4a bd be 1e 03 cd bf 4d ea 8d bf cc c2 a8 be
       -0.36970547 -1.6016576 -1.1087128 -0.32961118

39 f4 [16]
000000 ce e6 26 bf ed a5 24 3f 82 af 00 be 72 87 95 3f
       -0.6519593 0.6431568 -0.12566951 1.168196
000010 d1 ae 1b c0 82 20 6c bf 19 8d 54 40 b1 4a 97 3f
       -2.432545 -0.92237103 3.321112 1.1819669
000020 51 55 0f c0 82 ec a2 bf 05 21 95 40 99 8f 12 bf
       -2.2395823 -1.2728426 4.6602807 -0.5725036
000030 7e 5c f8 3d 24 43 45 40 9b aa eb 3f 74 29 19 40
       0.121270165 3.082223 1.841144 2.393155

fc.0.bias f4 [426]
000000 65 83 e1 3c 6f e8 e9 3d 33 1d 2e bc 08 4d 1d 3a
       0.027528474 0.11421286 -0.010627079 0.0006000553
000010 23 ed 8f 3d cd 50 00 3d b6 03 00 3e a4 fa 03 3d
       0.07027652 0.031327058 0.12501416 0.03222145
000020 90 61 28 3e 73 79 7e 3c b6 fc 1e 3d e9 e7 f6 3d
       0.16443467 0.015531885 0.038815223 0.12055952
000030 19 bc ad bc 93 88 8a bd 4b 75 7b 3d 2c 5f 0a bd
       -0.021207856 -0.06764331 0.061391156 -0.03378217
000040 50 ff b8 b8 2e 0a 53 3d 5a de 33 3b 5b c1 29 3d
       -8.8213594e-05 0.05152338 0.0027445764 0.041444164
000050 d9 18 4a bd dc cf af 3d b1 81 dc 3d 38 a3 66 3d
       -0.049340103 0.08584568 0.10766924 0.056308
000060 bb 13 0c 3e 47 9b 65 bd ae 76 0d 3d a1 fd b2 3d
       0.13679402 -0.056056287 0.03453701 0.08739782
000070 60 fb 0c 3e 94 82 6e bb 7f 02 92 3c 51 2b ae bd
       0.13767767 -0.0036393749 0.017823456 -0.08504356
000080 32 ea 17 3e 75 7d 28 3e 05 68 8a 3d af 47 96 3c
       0.14835432 0.16454108 0.067581214 0.018344728
000090 b8 0a f3 3d 91 ee 5c bd bc a1 cf bc 81 b6 1a 3e
       0.11867279 -0.053938452 -0.025345676 0.15108682
0000a0 26 ab bc 3c e8 37 d9 3d ce bd 29 bd eb 17 4f bd
       0.023030829 0.106063664 -0.041440777 -0.05055992
0000b0 80 8a f0 bc b5 f4 84 3d 9d 03 66 bd a9 9b df bc
       -0.029362917 0.06491987 -0.05615579 -0.027295904
0000c0 6f 2b c7 3d 9a bd 0a 3d 4c 44 82 bc 75 dd 06 3e
       0.09725081 0.033872224 -0.015901707 0.13170417
0000d0 0c fb 4c bd a4 5c a9 3d e3 86 21 bd ec b2 75 3c
       -0.050044104 0.08269623 -0.03943528 0.014996272
0000e0 43 d8 99 3d dd 3d ae 3d 4f a3 86 3d c0 41 06 3e
       0.07511952 0.08507893 0.065741174 0.13111019
0000f0 37 1f 3e 3c c7 b5 ee 3d 02 64 62 3d 77 f7 d7 3c
       0.011604122 0.11655765 0.055271156 0.026363118
000100 d9 e2 3c bd 77 8a 87 3d 2c cd 33 3d bb e9 da bc
       -0.046114776 0.06618207 0.04389684 -0.02672278
000110 0c 0b d0 3d f9 aa c8 bb f8 6d 65 bd f6 a1 30 bd
       0.10158357 -0.006123897 -0.056013077 -0.043123208
000120 e7 a5 f5 3b 05 b2 52 bd b7 5c 82 3c e4 0a d8 3c
       0.0074965837 -0.051439304 0.01591335 0.02637238
000130 f5 16 1a 3d ea 69 b8 3d a3 50 00 3e 4f 54 89 bd
       0.03761955 0.090045765 0.1253076 -0.06705534
000140 ce 94 25 bc 4a b2 83 3d c8 89 b1 3d 89 8a e6 3d
       -0.010106279 0.0643049 0.08668858 0.11256892
000150 aa 2a d9 bc 4f 4c 98 3d 78 89 3d 3d d3 7d 5f 3d
       -0.026509602 0.0743643 0.04627368 0.054563355
000160 82 1c e0 3c ff 9d 20 3d 5c 91 fb 3d 21 b3 02 3e
       0.027357344 0.039213177 0.122835845 0.12763645
000170 22 3a 26 3d bc e6 b8 3b f6 96 54 3d 7b 6c da bc
       0.040582784 0.00564274 0.05190178 -0.026663056
000180 90 af a1 3d 14 9a c3 3d 88 a7 a4 3d e0 41 61 bb
       0.07894814 0.095508724 0.080397666 -0.003437154
000190 37 63 b9 3d 5b 69 28 bc 31 83 71 bd 01 1e 9d bd
       0.09052127 -0.010279025 -0.058963004 -0.076717384
0001a0 e6 02 0a 3e 05 d4 0d bd b0 c1 3d 39 c1 36 5c 3d
       0.13477668 -0.034626026 0.00018096599 0.053763155
0001b0 0f 4c e8 bb a3 d4 60 3d 92 d9 6d 3d 6b ff cd 3d
       -0.007089145 0.054890286 0.05806882 0.10058483
0001c0 c8 49 fb 3d d5 7d aa 3d 0c 95 b2 3d 2f 8c a5 bc
       0.12269932 0.08324782 0.08719835 -0.020208446
0001d0 ca 6c 25 3d fd 09 cf 3d 83 32 0a bd 8c 58 80 3d
       0.040386952 0.10109327 -0.033739578 0.06266889
0001e0 5c 06 c5 3d 18 f2 cf 3c 8d d5 e2 3c c8 9d 11 3d
       0.096203536 0.025383994 0.02768972 0.035550863
0001f0 52 0e b2 3d 46 cf 45 3c 3e 9e c2 3c d3 4c c5 3d
       0.08694138 0.012073344 0.023757096 0.09633794
000200 89 4f 5a 3b 5b cf b8 bc 80 b3 a4 3d 92 f9 25 bd
       0.0033311567 -0.022559812 0.080420494 -0.040521212
000210 96 d5 ba 3d 6a e8 50 3d 40 ae cf 3d d0 78 8e 3d
       0.091227695 0.051002897 0.101406574 0.06956637
000220 ff 49 99 bb f0 3a d2 3d 80 06 7a bd fd 78 83 3d
       -0.0046780105 0.10265148 -0.061041355 0.06419561
000230 54 ba c2 3b ad dc 71 bd 85 62 03 bc 59 ff 2d 3d
       0.005942622 -0.059048343 -0.008019094 0.042479847
000240 f0 b5 fe 3d cf 27 01 3e f6 a8 60 3d 6a ff 05 bd
       0.124370456 0.12612842 0.054848634 -0.032714285
000250 29 38 d5 3d e9 a1 56 3d d0 62 82 bd 8a 96 f5 3d
       0.10411102 0.052400503 -0.06366503 0.11991604
000260 6b d9 49 3d 7d 3d 5c bc f1 1a 21 3e f1 a9 fa 3d
       0.04927961 -0.013442394 0.15732934 0.12239445
000270 70 7b b8 3d dd ca 22 3e 24 2f a2 3c bf a5 50 bd
       0.09007919 0.15897699 0.019797869 -0.050939318
000280 34 be 6f bd 61 a2 ae 3d 1c c4 1c 3e 0f 5e a9 bc
       -0.058531 0.08527065 0.15309185 -0.020674733
000290 ff 03 ba bc cd af d4 3d 7b 2a 78 bc f0 98 ca 3c
       -0.022706984 0.10385094 -0.015146847 0.02473113
0002a0 d1 35 0d 3e eb a3 e6 3d 98 4d 9e bc 8e 17 ac 3d
       0.1379006 0.112617336 -0.019324109 0.0840293
0002b0 1e cc 37 3d 87 e3 c4 3d d4 be 2d 3d f9 e6 c4 3d
       0.044872396 0.0961371 0.042418316 0.09614367
0002c0 e4 fa 8e 3d 70 34 63 bd 7f ff 5c 3d 5f 43 55 3d
       0.06981447 -0.05546993 0.053954598 0.052066203
0002d0 15 38 a7 3d f3 0f ed 3d 49 e7 da 3d 79 6b 66 bc
       0.08164994 0.11575308 0.106886454 -0.014063709
0002e0 29 75 5c 3d 37 38 c7 bc e8 8e ab bd 72 f2 9a 3d
       0.05382267 -0.024318798 -0.083768666 0.07565774
0002f0 9a 61 cd 3b 68 37 17 bd f8 74 98 3d 96 99 6e 3c
       0.0062677385 -0.036918074 0.07444185 0.014562985
000300 77 85 a3 3d f6 43 8c 3c 0e 9d bb bc f8 0f 7a 3d
       0.07984441 0.01712225 -0.022902038 0.061050385
000310 92 89 53 bc d2 82 d1 3c 13 9d 8d 3d 4e f5 ce 3c
       -0.012911217 0.025575075 0.06914725 0.025263455
000320 04 de 35 3c ef 8b f8 bb e2 93 b8 3b 0c 17 9a 3d
       0.011100296 -0.0075850408 0.0056328634 0.07523927
000330 04 6a f8 3c 10 d1 c3 3d ba 33 00 3e 14 0d 12 3e
       0.03032399 0.0956136 0.12519732 0.14262801
000340 fb c6 56 3b b2 34 56 3d d1 59 8d bd 6a fe 51 bd
       0.003277241 0.052296348 -0.06901897 -0.05126802
000350 f5 7b fa 3d a2 8a c7 3d 1a 8c 7d 3b 27 55 46 3d
       0.12230674 0.09743239 0.0038688243 0.04842105
000360 f0 6b b2 3d 71 f6 a7 bc e7 02 9d 3c b1 e7 0e bd
       0.08711994 -0.020503255 0.019166423 -0.034888927
000370 ef 35 52 3d 6b c0 ab bd 04 8f b7 3d b7 a2 81 bc
       0.051320966 -0.0838631 0.08962825 -0.015824659
000380 5d 50 eb 3d af fb 38 3b fe 53 11 3d 56 34 b4 3d
       0.114899375 0.0028226187 0.03548049 0.08799045
000390 f1 65 a8 3d a1 73 9e 3d 98 a1 5f bd af 53 2c 3d
       0.08222569 0.07736898 -0.054597467 0.042071994
0003a0 72 bf 41 3c c9 9a f3 3d 0a f6 9b bc 4c a5 41 bd
       0.011825429 0.11894757 -0.019038219 -0.04727678
0003b0 83 3b 57 3d b4 44 42 3d 01 20 63 3d be 92 4b bd
       0.05254699 0.0474288 0.055450443 -0.04970049
0003c0 56 db e5 bc 9e d4 02 bd 8d 18 b9 3d 2f 13 23 bd
       -0.02805869 -0.03194105 0.09037886 -0.039813217
0003d0 85 62 d3 3d ea d9 84 bc 1e c0 4e bd c8 97 93 3c
       0.103215255 -0.01621719 -0.050476186 0.01801671
0003e0 6f 34 24 3d dc a0 04 3e 5b a4 9d 3c 8a 8c d0 3d
       0.040089067 0.12951988 0.01924341 0.10183056
0003f0 25 78 31 3c 01 43 8e 3d 0e 83 8d 3d a6 52 10 3e
       0.010831867 0.06946374 0.06909762 0.14094028

fc.0.weight f4 [426, 64]
000000 3f ad 7b 3d ad b2 76 bd 34 a6 78 3d a3 8e b1 3d
       0.061444517 -0.060228992 0.06070538 0.08669784
000010 36 51 95 bd 9a 1b 49 bd bc 6d 35 3e 40 a3 aa 3d
       -0.072908804 -0.04909859 0.17717642 0.08331919
000020 ca 8a f2 3c d1 b2 ab bc 09 4b 20 3c f6 45 87 bd
       0.029607195 -0.02095929 0.009783515 -0.06605141
000030 01 10 cc 3c 60 b6 91 3c 0c 7f fb 3c ff 49 10 bd
       0.024909975 0.017787158 0.03070023 -0.03522682
000040 c3 0b 9f 3d 9e 58 0b 3e 5f 13 da 3d 0a 36 33 3e
       0.07765915 0.13608024 0.10648226 0.17501083
000050 cb 37 2d bc 42 26 ef 3c 6e 21 0b 3e 1b 5b 3a 3e
       -0.010572384 0.029193047 0.13586971 0.18198816
000060 34 da 0f bd 34 ac 02 bd ec 4c fc 3c 3e 5e 3e bd
       -0.035120204 -0.031902507 0.030798398 -0.046476595
000070 61 9b 82 3d 5b 0b 14 bd 87 d0 21 3e 11 66 07 3e
       0.063772924 -0.036143642 0.15802203 0.13222529
000080 6a a1 d9 bc 8a 22 25 3d de e3 04 bd 5a 1e 6b 3d
       -0.026566226 0.040316142 -0.032443874 0.057401992
000090 fc 33 fc 3d 28 c9 20 bc 4b 08 0f 3e b6 05 9e 3d
       0.12314603 -0.009813584 0.13968007 0.07715933
0000a0 86 52 19 be ea 14 3e be a0 21 cb 3b da bc c3 bd
       -0.14972886 -0.18562666 0.006199077 -0.09557505
0000b0 07 ac ca bd 65 9a c2 bd d9 da de 3c 9e 07 ca 3d
       -0.09896093 -0.09502105 0.027203964 0.09864734
0000c0 a2 95 db 3d 6d 0d e2 3d a5 6b 06 bd 8c 30 17 3e
       0.107218996 0.11037717 -0.0328175 0.14764613
0000d0 a2 8f d4 bd 92 d0 94 bd 3e 8d 0c be c1 02 98 3c
       -0.10378958 -0.07266344 -0.13725755 0.018556
0000e0 f7 ba ef bd 9a 8c db 3a f5 24 c1 3c 3b 49 20 3e
       -0.117055826 0.0016750277 0.023577193 0.15652935
0000f0 1f 73 c3 3d 90 dd 11 3c 57 19 43 bd e8 b7 08 be
       0.09543442 0.008902922 -0.047631588 -0.13351405
000100 d3 44 85 ba 5f dc da bc 17 c3 7b 3d cf e2 0c 3e
       -0.0010167606 -0.02671641 0.06146535 0.13758396
000110 2e 9f 3a bd 30 de 17 3d 63 d1 f3 3d dd 02 36 3d
       -0.04556196 0.03707713 0.11905172 0.044436324
000120 cf d2 87 bd 7a b1 c3 3b 76 95 0a 3e 30 b8 f4 bd
       -0.066320054 0.0059720846 0.13533577 -0.119491935
000130 32 80 37 3c 37 ab 9a 3d 33 d1 64 3c fb 04 92 3c
       0.011199998 0.07552188 0.013965893 0.01782464
000140 b6 e7 2a bd b2 7f c0 3c 60 8a 8e 3c 69 28 3f be
       -0.041724883 0.02349839 0.017399967 -0.18667759
000150 cb 7a 0a 3d b7 bf 18 3e 09 ee 7a be 41 f5 e4 bc
       0.03380851 0.14916883 -0.24504866 -0.027948977
000160 e5 42 07 be ad b4 04 bc 41 d5 20 3e da 9a 61 3a
       -0.13209112 -0.008099717 0.1570635 0.00086061435
000170 e2 30 97 bd b9 10 40 be 52 df 25 3c c7 76 64 3d
       -0.073823705 -0.18756379 0.0101240445 0.055777337
000180 a2 d4 34 bd 24 de bc bc e2 f0 2f 3e a1 c9 db bd
       -0.044148095 -0.023055144 0.17181733 -0.10731817
000190 1d e6 fe bd 3c fd d6 bd bc bf 1f 3d cf c3 d3 3d
       -0.124462344 -0.104975194 0.03900121 0.10340082
0001a0 09 31 08 3e 77 22 5e 3e 96 10 93 bc 1b 33 fc 3d
       0.13299955 0.21692835 -0.017952245 0.12314435
0001b0 48 ff 1c bd b4 28 37 be 9c 8f 87 bd ce 4e 69 bd
       -0.038329393 -0.17886621 -0.06619188 -0.05695992
0001c0 69 c8 22 3e 94 3f e7 3c a4 44 e7 3d 23 27 65 bd
       0.15896763 0.028228559 0.11292389 -0.055945527
0001d0 fe 53 98 3d 10 46 e5 3d 40 3b ce bc 80 b9 22 3b
       0.07437895 0.11195004 -0.025174737 0.0024829805
0001e0 84 ea 29 3e 37 e3 ab 3c a8 2e 98 bc ed 36 2a 3e
       0.16593367 0.020982368 -0.018576935 0.16622515
0001f0 c1 46 1d 3d aa 30 14 3e f1 a2 fe 3d b9 b6 c8 3c
       0.038397554 0.14471689 0.12433422 0.024501191
000200 37 1c 6c 3c f7 6c c0 3d fb 9f 4d bd 78 0e af bd
       0.014411024 0.093957834 -0.050201397 -0.085476816
000210 3d a3 ad 3d 9f 76 03 3e 88 b7 d2 3c 6c e7 2d 3e
       0.08478401 0.12838219 0.02572228 0.16982812
000220 aa db be 3d f8 1e 9a 3d 8c ac 10 be d3 c2 9a bd
       0.09319241 0.07525438 -0.14128321 -0.07556691
000230 c5 37 cb bd 33 fe 36 bd 73 3c 59 be 65 24 07 be
       -0.099227466 -0.044676017 -0.21214466 -0.13197477
000240 65 c9 5d bd b7 69 6a bd 21 8f 21 be 53 87 16 3e
       -0.054147143 -0.057229724 -0.15777256 0.1470006
000250 1f d5 d1 3d ef 78 a2 bc cd 22 c5 bd 18 33 05 3e
       0.10245728 -0.019833056 -0.09625778 0.13007772
000260 ce 4d cf 3d 38 a6 10 3e c1 bc bd 3d 18 5e c7 3d
       0.10122262 0.14125907 0.092645176 0.09734744
000270 72 d7 d8 3d fa 55 fd 3d 9b e7 0a bd f9 b6 2c 3e
       0.10587968 0.12369914 -0.033912282 0.16866674
000280 82 06 a6 3d 51 82 6a 3d 40 c9 f1 bd 70 f7 2d 3e
       0.0810671 0.057253186 -0.118059635 0.16988921
000290 7a 75 26 3d 84 cb 3f 3e 76 df 00 3d a4 f0 55 3d
       0.040639378 0.18729979 0.03146311 0.052231446
0002a0 0c 55 04 bd ce 26 88 bd 27 70 1d 3e 5e 98 4c 3e
       -0.03230767 -0.066480264 0.15374814 0.19979998
0002b0 cf 18 db 3d ac 3b 2e 3e 4b 34 24 3e ed 81 48 3e
       0.10698091 0.1701495 0.16035573 0.19580813
0002c0 4d ff 35 be 5d 89 48 bd c1 6d b4 3b 3d 09 c0 bd
       -0.17773171 -0.048959125 0.0055062477 -0.09376762
0002d0 af 89 dd bd dc 8a 80 bd c7 04 d4 3d 97 6a ce bd
       -0.10817277 -0.06276485 0.10352474 -0.10078924
0002e0 ce bb 1f 3e e0 cf 48 bd 0b cb da bd 85 88 54 bc
       0.15598986 -0.04902637 -0.106832586 -0.012972002
0002f0 b9 d9 81 bd 46 4f 29 3e cf 37 ce bd a5 8a e8 3d
       -0.063403554 0.16534147 -0.100692384 0.11354569
000300 ac ea 8a b9 a0 de 30 3e d3 46 59 3d 75 92 e0 bc
       -0.00026496255 0.17272425 0.05304606 -0.027413586
000310 2c 23 90 3d c0 75 b5 3d f0 32 b6 3d 2a 56 01 3e
       0.070379585 0.0886035 0.08896434 0.12630525
000320 cc 1e d9 3d f0 c2 18 bd e4 b4 fa 3d 20 2b b0 3c
       0.10601577 -0.037295282 0.122415334 0.021504939
000330 9e 99 1c bd f6 01 8d bd 90 59 e2 bd b9 2e a4 bd
       -0.03823244 -0.0688514 -0.11052239 -0.08016724
000340 4a f8 76 3d 5f e7 f5 3d 08 70 26 3d ad 35 c7 ba
       0.06029538 0.12007021 0.040634185 -0.0015198492
000350 0a 1e b5 bd 49 d6 1b 3d d7 9f 1b bd 75 37 c6 bd
       -0.0884362 0.038046155 -0.037994232 -0.09678546
000360 b7 53 33 3d 2d 56 ee 3b 62 ad 9f bd 9b de 9f bd
       0.04378101 0.0072734565 -0.07796742 -0.078061305
000370 2c 65 cc bd 75 1b 76 3c 59 f4 c2 bd 31 b9 f3 3c
       -0.099802345 0.015021195 -0.09519262 0.029751392
000380 fd e3 d5 3d 87 6c ed 3d f1 d1 ec ba 6e 16 f8 bc
       0.10443876 0.115929656 -0.0018067939 -0.030284133
000390 53 6c f4 bd 54 7d 41 3d c4 c7 79 bd 51 5c 08 be
       -0.11934724 0.047238663 -0.060981527 -0.13316466
0003a0 c4 54 35 3c 84 cc 81 3d 1d 2b c2 bc b8 15 ba bb
       0.011067573 0.063378364 -0.023702199 -0.0056788586
0003b0 7f 7c 4b 3d d7 77 df bc 31 62 5e 3c 52 cb a6 bc
       0.049679276 -0.027278824 0.013573215 -0.020360623
0003c0 dc fd 2b 3e 69 57 d3 3d 58 d1 fa 3d 31 59 91 3b
       0.16796058 0.103194065 0.122469604 0.0044356813
0003d0 14 8f 5f bd 8d 18 f2 3d 7c 46 f9 3d 86 d8 24 3d
       -0.05457981 0.11821089 0.12171647 0.040245555
0003e0 3e dc 5a bd 5e 97 14 3d d8 6a 05 3c 64 4d 63 3d
       -0.053432696 0.036277167 0.008143149 0.055493727
0003f0 22 ec dd 3d 9d 94 81 bc 7e f7 76 3d ca 03 fc 3d
       0.108360544 -0.015817935 0.06029462 0.1230541

fc.3.bias f4 [213]
000000 cb 09 ac bc ea 4f b2 3c 95 e8 0b bd 9c be 33 bd
       -0.021000763 0.021766622 -0.034157354 -0.04388295
000010 06 f1 0d 3c 0c 13 7a 3c d1 ba 51 3d 54 ce a2 3a
       0.0086634215 0.01526333 0.051203553 0.001242111
000020 ef 59 4a 3c f3 85 89 3c 56 ef c0 3b ba 0a 4b 3c
       0.012350543 0.016787505 0.005887906 0.012392694
000030 ba 51 5e 3c df 59 bc 3c 45 88 8e bb 2f 57 ce bc
       0.01356929 0.022992073 -0.0043497407 -0.025188057
000040 31 b8 66 bc a3 53 39 3b be 9c 8e bc 0a 5e 26 3c
       -0.014082001 0.002827861 -0.017408725 0.010154257
000050 10 b5 83 bc 11 b0 bb bc 44 5a b2 bc 73 44 51 3d
       -0.016077548 -0.022911103 -0.021771558 0.05109067
000060 c0 30 d3 3c a7 c1 2d 3d 59 cb 05 3c 95 08 e7 bb
       0.025780082 0.04242101 0.008166158 -0.0070505836
000070 8d 1f b3 bc d6 b3 2a 3c 40 33 56 3b 13 09 91 bc
       -0.02186563 0.010418853 0.0032684356 -0.017704522
000080 c5 c5 37 bd 87 3d be bc f8 fb ed bc f1 12 c4 bc
       -0.044866342 -0.023222698 -0.029050812 -0.023934813
000090 51 67 88 bd 39 5e 85 bc 31 6d 27 bd 92 ad c0 3c
       -0.06660331 -0.01628028 -0.040875617 0.023520265
0000a0 ad 8e e6 bc 70 b4 f9 bc c4 3a 8d bd 40 5c b2 bc
       -0.028144205 -0.030481547 -0.06895974 -0.021772504
0000b0 5e f9 c2 3d c6 07 a9 3d b8 2a cd bc c1 0f 2c bd
       0.09520219 0.08253436 -0.025044784 -0.04200721
0000c0 52 85 b2 bc 7e 92 1f bd 22 c3 2e bc 18 3a 4e 3d
       -0.021792088 -0.038958065 -0.0106666405 0.05034837
0000d0 94 ec 64 3c 88 9a 8a bd af ca c4 3c 5b af bc bb
       0.01397242 -0.06767756 0.024022428 -0.0057582087
0000e0 10 b1 13 3c c0 ec a7 bd 1f ef bf 3b df 35 09 3c
       0.009014383 -0.08199453 0.005857363 0.00837466
0000f0 f6 7c fa bb d8 66 49 3c c5 73 69 3c 11 2c 71 bc
       -0.007644291 0.012292586 0.014248793 -0.014719979
000100 7e 2f c3 bb c8 95 e2 bc 8a 78 0b 3d df dc d5 3b
       -0.0059565892 -0.027659312 0.034050502 0.006526574
000110 a2 26 56 bc 52 8c c6 bc 23 df 60 bd cc 3b fa bb
       -0.013070734 -0.024236832 -0.0549003 -0.007636523
000120 e5 bd e7 bc 57 79 d1 bc 7e e6 83 3c 83 d6 00 3c
       -0.028288791 -0.025570555 0.016101118 0.007863644
000130 b3 a5 07 bd f2 33 5b bd 8d 21 0f 3a b3 5d 91 bc
       -0.033117007 -0.053516336 0.00054600165 -0.017744875
000140 6d 25 30 bc f2 08 23 3d 46 ec 93 bc 1f b7 44 3d
       -0.0107511105 0.039803453 -0.018057 0.0480262
000150 ab c7 cd bc f3 a5 1a bd 19 3b f6 bc 3a 63 7a 3d
       -0.025119623 -0.037755918 -0.030057477 0.061129786
000160 bb 3f 50 bd 66 09 a7 bc b0 21 64 3d 74 bb 21 bc
       -0.050842028 -0.020390224 0.05569619 -0.009871352
000170 33 58 b8 bc f7 7a 6b bd ff 12 01 bd 4e 32 88 bc
       -0.022502994 -0.057490315 -0.031512257 -0.01662555
000180 5e 81 8c bd 74 0e 05 bd 61 1f b9 3c 7d cd c3 bc
       -0.06860612 -0.032484487 0.02259797 -0.023901695
000190 2d 8e c0 bc 8b 40 a2 bb ad d9 60 bc 3d 16 ae 3b
       -0.023505295 -0.004951542 -0.013723773 0.0053127096
0001a0 0e f6 14 3d 4f 2c ac bd 3c 37 a0 bc 46 c2 c0 bb
       0.03636747 -0.08406889 -0.019557588 -0.005882534
0001b0 85 7a 59 bc d2 05 10 bc 10 26 f9 bc d8 6d 39 3d
       -0.01327384 -0.00879045 -0.030413657 0.04527077
0001c0 d7 77 ca bc 8e ed 97 bd 06 20 57 3c ad 0f ac bb
       -0.024715347 -0.07418357 0.013130194 -0.005250892
0001d0 d7 b5 77 bd b9 63 20 3b 8f 51 55 bc 14 5b 6f 3c
       -0.06047615 0.0024473502 -0.013019933 0.014609117
0001e0 f2 2b f1 3c c2 73 56 bd e1 92 4a 3c 9e 3e 56 3d
       0.0294399 -0.05235649 0.01236412 0.05230581
0001f0 91 e8 78 bc 6d f3 6f bd 55 15 b6 3b e8 84 26 3d
       -0.015192167 -0.05858176 0.005556742 0.040654093
000200 47 d4 9a 3c db 7e f7 3c ea 4e d2 ba c4 87 ff bb
       0.01890005 0.030211857 -0.0016045247 -0.007798167
000210 a7 8b 7f 3c dd 37 b5 bc 95 fa 00 bc 10 d0 6e bc
       0.015597261 -0.022121364 -0.007872243 -0.014575973
000220 f7 a8 1e bc 85 fd 24 3c f6 30 49 bd d6 2a 2b 3c
       -0.009683839 0.010070209 -0.04911896 0.010447225
000230 90 a5 1a ba 6f c8 8a bc f7 db 32 bd d1 30 57 bc
       -0.00058993045 -0.016941277 -0.043666806 -0.013134197
000240 59 07 a6 bc 97 72 2e bc bb 20 84 bd 4b 27 62 3c
       -0.020267176 -0.010647438 -0.06451555 0.0138033135
000250 e9 07 d7 bc d5 c5 ba bc 8f 55 f5 3c 74 8e 2a bd
       -0.026248889 -0.022799412 0.029948024 -0.04163976
000260 42 50 89 3c 08 48 40 bd ac 49 9c bc 63 62 1f 3d
       0.016761903 -0.046943694 -0.019078098 0.03891219
000270 ee 3a e9 39 d3 d8 18 3c 0a e9 d5 bc 89 8c e2 bb
       0.0004448513 0.009329039 -0.026112098 -0.0069137258
000280 95 9e 04 bd ba ab 6e 3d dc 22 d3 ba c5 e5 ee bb
       -0.032377798 0.05826924 -0.0016108411 -0.0072905743
000290 62 ba 0f bd c0 98 12 3d b8 96 b6 37 84 69 70 bc
       -0.035089858 0.035790205 2.1766275e-05 -0.014673594
0002a0 29 ec 3b 3d 20 43 f5 3b 08 33 1c bc c3 67 eb 3c
       0.045879517 0.0074848086 -0.009533651 0.028736
0002b0 86 13 71 3c 26 eb 07 bd 04 40 29 3c 6c 1b 15 bc
       0.014714127 -0.03318324 0.010330204 -0.009100776
0002c0 b6 7a 03 3c bf 05 84 3c 59 cb 9d 3c 38 02 b5 3c
       0.008024862 0.016116021 0.019262003 0.022095785
0002d0 6c a0 04 bd 32 ce 34 3c ec 4b 4c 3d 5c 14 3e 3d
       -0.032379553 0.011035489 0.049877092 0.046406135
0002e0 fa 08 da 3c 54 82 0c 3d 47 9e 0d 3c 1b 42 9f 3d
       0.026615608 0.034303978 0.008643693 0.077762805
0002f0 e7 01 e9 bc cf af 43 bd c8 5b 16 bd b8 b7 05 3c
       -0.02844329 -0.047775086 -0.036708623 0.008161478
000300 d0 84 b7 3c 03 51 24 39 6f 0b 42 bb 42 3a 87 3c
       0.022402197 0.00015670438 -0.0029608866 0.016507272
000310 69 23 b0 3c 48 31 82 3a 1e 7e ba bc 3b 55 71 3d
       0.02150126 0.00099329 -0.022765215 0.058919173
000320 26 87 23 3c 19 dd d2 3c 74 6e c8 3d d6 15 5a bd
       0.009980952 0.025740193 0.09786692 -0.05324348
000330 6f a5 59 bd f4 67 32 3d 9c 24 16 bc 4c b3 91 bc
       -0.053136285 0.04355617 -0.009164002 -0.01778569
000340 93 59 06 bb 75 6d 07 bd d9 fd e4 bc fa 4d 83 bd
       -0.0020500168 -0.03306337 -0.027953075 -0.06411357
000350 42 57 37 bc
       -0.0111902375

fc.3.weight f4 [213, 426]
000000 73 eb b2 3d 65 ca 03 bd 73 73 91 3d 4c cc 3d bd
       0.087363146 -0.03217544 0.07102098 -0.04633741
000010 94 e8 d1 3c d3 9b 60 3b 07 e9 65 bd e6 b9 60 bd
       0.025623597 0.0034272566 -0.056130435 -0.054864787
000020 97 07 3c bb 56 88 f4 3c d9 22 bb bc cd 20 93 bc
       -0.0028691047 0.029850166 -0.022843765 -0.017959977
000030 c5 eb 6c bd e0 ff cc bc ec df 85 bd 0a d7 ae 3d
       -0.057842035 -0.025024354 -0.0653685 0.08537109
000040 f2 19 3e 3b c2 af 28 3d 41 20 16 bb 1b ae 58 3d
       0.0029007164 0.04118324 -0.0022907408 0.052900415
000050 e6 19 b6 3c 60 c4 64 bd b0 c8 cb bc 7e 5a 23 bd
       0.022229146 -0.05585134 -0.024875969 -0.039881222
000060 2e 2a 70 bb 91 0b 0f 3d b7 09 12 bd 02 51 b2 3c
       -0.0036646235 0.03492314 -0.035653796 0.021767143
000070 41 12 68 3d e4 b8 38 bd 38 b1 38 bd ec c1 f6 3a
       0.056658033 -0.0450982 -0.045090884 0.0018826104
000080 c2 63 8a 3d c0 9a 78 3d d5 47 60 3d 02 4c a7 bc
       0.067573085 0.060694456 0.054756004 -0.020421986
000090 62 8f 36 bc b6 5c 6c bd eb 7c 7c bd 46 65 32 3d
       -0.011142584 -0.057705604 -0.06164257 0.043553613
0000a0 d7 18 a8 3b 7c 59 18 bd f0 ee 96 3c 4f 21 27 bd
       0.0051299143 -0.037194714 0.018424481 -0.04080325
0000b0 d8 e8 bd bd 71 ee 69 3c f4 a2 2b 3d c0 cb 1c bd
       -0.09272927 0.01427804 0.04190345 -0.03828025
0000c0 32 ec 8c 3c b1 00 85 3c 5b cc a0 bd b5 90 e6 bc
       0.01720247 0.016235681 -0.07851478 -0.028145174
0000d0 17 d2 44 3d d4 5b a4 bc d1 e4 1b bd b5 d4 06 bd
       0.04805192 -0.020063318 -0.038060013 -0.032917697
0000e0 48 27 2e 3d e6 ec 8e bd b8 f9 5a 3d 79 2e f6 bb
       0.04251793 -0.069787785 0.053460807 -0.007512864
0000f0 93 fc a6 bd 8b 2c bb bd 89 5d 54 3b 5e 9f 4f 3b
       -0.081536435 -0.09139355 0.0032404384 0.0031680684
000100 9b bf 30 bd b2 83 ae bc a1 5b 48 3d ea 1f 10 bd
       -0.04315148 -0.021303032 0.04891551 -0.035186686
000110 5c d3 c5 bc c9 17 72 3d 30 69 61 bd 66 5e db 3c
       -0.024148636 0.059104715 -0.055031955 0.026778411
000120 a7 ba ea bc 5a 15 72 bd 02 f4 00 bc 9f 92 87 39
       -0.028653456 -0.059102394 -0.007870676 0.00025858448
000130 11 c4 29 3d 95 14 a1 bd cf bc 0b 3b 21 ea 38 3d
       0.04144675 -0.07865254 0.0021322255 0.045145158
000140 be bd 95 3c b6 64 be 3a 76 30 8a bd 05 de a0 bd
       0.018278953 0.0014525864 -0.067475244 -0.07854847
000150 c3 61 2c bc ed 96 9d bd e8 2f a4 3d 71 1b 6e bd
       -0.010521355 -0.076948024 0.0801695 -0.05813164
000160 f8 d1 76 3d 11 4b 46 bd c2 66 4c 3b 28 fa c1 3d
       0.060258836 -0.048411433 0.0031189178 0.09471542
000170 ee 68 7b bd 39 96 f9 bc ed 34 a9 bd d6 97 0e bd
       -0.061379366 -0.03046714 -0.08262048 -0.03481277
000180 96 66 48 bd 70 da a4 b9 2f e4 0c bd e5 7c c6 bc
       -0.04892596 -0.00031443266 -0.0343973 -0.024229476
000190 a3 59 f1 bd 49 d7 83 3d d5 e7 79 bd 1f cd 38 bc
       -0.11784675 0.06437547 -0.061012108 -0.011279373
0001a0 e6 0f 45 bd de 72 c6 3b 80 3a a4 bd cc c8 90 bd
       -0.048110865 0.0060561737 -0.080189705 -0.07069549
0001b0 86 5c fd 3c ae 5f b3 bc 9c af 91 bc 3f bf ee 3c
       0.030927908 -0.02189621 -0.017783932 0.029143928
0001c0 98 59 cd 3c 48 4d 9c bc a7 0b 77 bd dc 51 78 3d
       0.025067136 -0.01907982 -0.060313847 0.060624942
0001d0 85 13 de bb 3c f4 5e bd 3f ba 13 3d b7 ad 1f bc
       -0.0067772293 -0.05443214 0.03606629 -0.009746007
0001e0 eb b1 75 bc bc 85 22 3d 9d 98 98 3d a8 42 05 bb
       -0.014996032 0.03967832 0.07450984 -0.002033392
0001f0 99 10 08 bd 9a 7e c6 bc bf e4 a5 3d 6b 32 b9 3c
       -0.033218954 -0.02423029 0.081002705 0.022607049
000200 44 21 52 bd 2f e5 b5 bd 45 71 f9 bc 0e 80 d9 bb
       -0.051301256 -0.08881604 -0.030449519 -0.0066375798
000210 12 d7 42 3d 0e bb 3c 3b 52 50 4f 3d 9d 63 d1 bb
       0.04756839 0.0028798017 0.05061371 -0.0063900487
000220 e8 c7 09 3d d9 22 ae 3c 3d 9f 00 3d 7c a1 8d bd
       0.03363791 0.021256851 0.03140186 -0.06915566
000230 92 13 90 3d ff 32 79 bd 50 8a 83 bd bc 03 39 3d
       0.07034983 -0.06083965 -0.064228654 0.045169577
000240 22 4c 68 bd 48 ca 8e 3d b1 7e 1c 3d 14 b7 98 bd
       -0.05671323 0.06972176 0.03820676 -0.074567944
000250 1b fd 0d 3d ab cc 65 3d ed bd 09 bd ab 49 29 bd
       0.03466521 0.05610339 -0.033628393 -0.04133002
000260 37 b3 cc bc a2 28 16 3d 80 d3 10 bd b9 3a 09 bd
       -0.0249878 0.036659844 -0.035357952 -0.033503268
000270 d7 d2 09 bd d2 e2 15 bd b2 e5 3d 3d 13 fa c9 bd
       -0.03364834 -0.036593266 0.046361633 -0.09862151
000280 b2 c2 99 bd 9b 7c 6b 3d 46 95 96 3a 2b 53 81 3d
       -0.07507838 0.05749188 0.0011488579 0.06314691
000290 59 c1 8a bd 40 e8 81 3c 36 85 35 3d 75 f7 8a 3d
       -0.067751594 0.015857816 0.044316493 0.0678548
0002a0 c5 e1 cb 3b 41 6b 71 3d 97 7c 2c bd ac ae b6 3c
       0.006221982 0.058940176 -0.042111006 0.022300087
0002b0 a7 8e e6 3b 51 cb 08 3c 6b ca 5e 3d b8 b2 bd 3d
       0.0070360485 0.008349256 0.05439226 0.092626035
0002c0 c9 92 5c 3d 9a 45 4d 3d 65 1c 91 bd f5 02 45 3d
       0.053850923 0.050115205 -0.07085494 0.048098523
0002d0 3e 66 3a 3d 48 fb 8e b7 37 8a 02 bd b9 91 ad 3d
       0.045507662 -1.7044731e-05 -0.031870093 0.0847506
0002e0 67 97 65 3d e5 f0 09 bd 49 46 e0 3c 8b cf bf bb
       0.05605259 -0.033677 0.027377265 -0.0058535985
0002f0 07 3d 39 bd db e2 2f 3d d0 f0 b1 bd 62 e5 bb 3d
       -0.045224216 0.042940956 -0.086885095 0.09174611
000300 ae ec 40 3d 10 7d 8f bd 4f ee 08 bd 38 b4 35 3c
       0.047100715 -0.07006276 -0.033430394 0.011090331
000310 b0 8f b0 bb f8 24 8f 3c 14 3c 3e bb 93 1a b0 bd
       -0.0053882226 0.017473683 -0.0029027509 -0.08598819
000320 b1 12 17 3d 00 80 78 ba 6e 9d b6 3c 71 b5 e3 bc
       0.03688306 -0.00094795227 0.022291865 -0.027796479
000330 b5 bc ab bd 6e f4 3f 3d b8 bb b9 3c f3 6c 57 bc
       -0.083856024 0.046863966 0.02267252 -0.013148534
000340 52 7c 88 3c cd 5d 1c bd 43 6e c4 bd 80 85 97 3c
       0.016660843 -0.038175393 -0.09591343 0.018496275
000350 83 48 58 bc d0 53 4f 3d 48 59 b4 3d d3 ad 7f bd
       -0.013200882 0.05061704 0.088060915 -0.06242163
000360 ab b7 6a 3d 4d a0 a1 bd f4 6b 3d 3d 26 3b 86 bd
       0.057304066 -0.07891903 0.04624553 -0.065542504
000370 5c 80 d3 bb 2b 29 b9 3c c3 5e 22 bc d7 65 13 3d
       -0.0064545106 0.022602638 -0.009910288 0.035985794
000380 4e fd 59 bd 47 30 a4 3c 18 96 02 bd ee e3 c3 bc
       -0.053220086 0.020042552 -0.03188142 -0.023912396
000390 6d 0e 2a bd f6 68 69 3d b3 a9 f6 bc 56 44 7e bd
       -0.041517664 0.056984864 -0.030110216 -0.06207689
0003a0 d1 c9 ad bc 16 09 24 bd 7e 3e 21 bd e5 3b 2e 3d
       -0.021214398 -0.040047728 -0.039366238 0.04253759
0003b0 ee 73 3f bd 6f bf 6a bb de cb 34 bd 2d 47 75 3b
       -0.04674142 -0.003581967 -0.044139735 0.0037426457
0003c0 75 5b a0 3c 65 12 05 bd c6 91 aa bd c8 34 ee bc
       0.01957486 -0.032488246 -0.08328585 -0.029077902
0003d0 66 f2 0c 3c 3a 32 97 bd 3b 59 98 bd ac af 3f bc
       0.008602714 -0.07382627 -0.07438894 -0.011699598
0003e0 fd 77 81 3d ce 5c f7 bc 5f ed 7d bd 83 cf 73 3d
       0.06321714 -0.03019562 -0.061993953 0.05952407
0003f0 43 41 50 3d 05 46 23 bd 41 f6 86 bc 7b 3f 4b bd
       0.05084349 -0.039861698 -0.016474845 -0.049621087
